…
[12/20 22:55:39] d2.config.lazy WARNING: The config contains objects that cannot serialize to a valid yaml. E:/dl-sy/ICGVesSeg/results\baseline_231220\config.yaml is human-readable but cannot be loaded.
[12/20 22:55:39] d2.config.lazy WARNING: Config is saved using cloudpickle at E:/dl-sy/ICGVesSeg/results\baseline_231220\config.yaml.pkl.
[12/20 22:55:39] detectron2 INFO: Full config saved to E:/dl-sy/ICGVesSeg/results\baseline_231220\config.yaml
[12/20 22:55:39] d2.utils.env INFO: Using a generated random seed 39351146
[12/20 22:55:39] detectron2 INFO: Model:
VesselSeg(
  (backbone): UNetBackbone(
    (l0): Sequential(
      (0): Conv2dABN(
        (conv): Conv2d(1, 16, kernel_size=(5, 5), stride=(2, 2), padding=(2, 2), bias=False)
        (abn): InPlaceABNSync(16, eps=1e-05, momentum=0.1, affine=True, activation=leaky_relu[0.01])
      )
      (1): BottleneckABN(
        (conv1): Conv2d(16, 4, kernel_size=(1, 1), stride=(1, 1), bias=False)
        (bn1): InPlaceABNSync(16, eps=1e-05, momentum=0.1, affine=True, activation=leaky_relu[0.01])
        (conv2): Conv2d(4, 4, kernel_size=(3, 3), stride=(1, 1), padding=(1, 1), bias=False)
        (bn2): InPlaceABNSync(4, eps=1e-05, momentum=0.1, affine=True, activation=leaky_relu[0.01])
        (conv3): Conv2d(4, 16, kernel_size=(1, 1), stride=(1, 1), bias=False)
        (bn3): InPlaceABNSync(4, eps=1e-05, momentum=0.1, affine=True, activation=leaky_relu[0.01])
      )
      (2): BottleneckABN(
        (conv1): Conv2d(16, 4, kernel_size=(1, 1), stride=(1, 1), bias=False)
        (bn1): InPlaceABNSync(16, eps=1e-05, momentum=0.1, affine=True, activation=leaky_relu[0.01])
        (conv2): Conv2d(4, 4, kernel_size=(3, 3), stride=(1, 1), padding=(1, 1), bias=False)
        (bn2): InPlaceABNSync(4, eps=1e-05, momentum=0.1, affine=True, activation=leaky_relu[0.01])
        (conv3): Conv2d(4, 16, kernel_size=(1, 1), stride=(1, 1), bias=False)
        (bn3): InPlaceABNSync(4, eps=1e-05, momentum=0.1, affine=True, activation=leaky_relu[0.01])
      )
    )
    (rt0): Sequential(
      (0): BottleneckABN(
        (conv1): Conv2d(16, 4, kernel_size=(1, 1), stride=(1, 1), bias=False)
        (bn1): InPlaceABNSync(16, eps=1e-05, momentum=0.1, affine=True, activation=leaky_relu[0.01])
        (conv2): Conv2d(4, 4, kernel_size=(3, 3), stride=(1, 1), padding=(1, 1), bias=False)
        (bn2): InPlaceABNSync(4, eps=1e-05, momentum=0.1, affine=True, activation=leaky_relu[0.01])
        (conv3): Conv2d(4, 16, kernel_size=(1, 1), stride=(1, 1), bias=False)
        (bn3): InPlaceABNSync(4, eps=1e-05, momentum=0.1, affine=True, activation=leaky_relu[0.01])
      )
      (1): BottleneckABN(
        (conv1): Conv2d(16, 4, kernel_size=(1, 1), stride=(1, 1), bias=False)
        (bn1): InPlaceABNSync(16, eps=1e-05, momentum=0.1, affine=True, activation=leaky_relu[0.01])
        (conv2): Conv2d(4, 4, kernel_size=(3, 3), stride=(1, 1), padding=(1, 1), bias=False)
        (bn2): InPlaceABNSync(4, eps=1e-05, momentum=0.1, affine=True, activation=leaky_relu[0.01])
        (conv3): Conv2d(4, 16, kernel_size=(1, 1), stride=(1, 1), bias=False)
        (bn3): InPlaceABNSync(4, eps=1e-05, momentum=0.1, affine=True, activation=leaky_relu[0.01])
      )
    )
    (up0): Upsample(scale_factor=2.0, mode='bilinear')
    (l1): Sequential(
      (0): Conv2dABN(
        (conv): Conv2d(16, 32, kernel_size=(3, 3), stride=(2, 2), padding=(1, 1), bias=False)
        (abn): InPlaceABNSync(32, eps=1e-05, momentum=0.1, affine=True, activation=leaky_relu[0.01])
      )
      (1): BottleneckABN(
        (conv1): Conv2d(32, 8, kernel_size=(1, 1), stride=(1, 1), bias=False)
        (bn1): InPlaceABNSync(32, eps=1e-05, momentum=0.1, affine=True, activation=leaky_relu[0.01])
        (conv2): Conv2d(8, 8, kernel_size=(3, 3), stride=(1, 1), padding=(1, 1), bias=False)
        (bn2): InPlaceABNSync(8, eps=1e-05, momentum=0.1, affine=True, activation=leaky_relu[0.01])
        (conv3): Conv2d(8, 32, kernel_size=(1, 1), stride=(1, 1), bias=False)
        (bn3): InPlaceABNSync(8, eps=1e-05, momentum=0.1, affine=True, activation=leaky_relu[0.01])
      )
      (2): BottleneckABN(
        (conv1): Conv2d(32, 8, kernel_size=(1, 1), stride=(1, 1), bias=False)
        (bn1): InPlaceABNSync(32, eps=1e-05, momentum=0.1, affine=True, activation=leaky_relu[0.01])
        (conv2): Conv2d(8, 8, kernel_size=(3, 3), stride=(1, 1), padding=(1, 1), bias=False)
        (bn2): InPlaceABNSync(8, eps=1e-05, momentum=0.1, affine=True, activation=leaky_relu[0.01])
        (conv3): Conv2d(8, 32, kernel_size=(1, 1), stride=(1, 1), bias=False)
        (bn3): InPlaceABNSync(8, eps=1e-05, momentum=0.1, affine=True, activation=leaky_relu[0.01])
      )
      (3): BottleneckABN(
        (conv1): Conv2d(32, 8, kernel_size=(1, 1), stride=(1, 1), bias=False)
        (bn1): InPlaceABNSync(32, eps=1e-05, momentum=0.1, affine=True, activation=leaky_relu[0.01])
        (conv2): Conv2d(8, 8, kernel_size=(3, 3), stride=(1, 1), padding=(1, 1), bias=False)
        (bn2): InPlaceABNSync(8, eps=1e-05, momentum=0.1, affine=True, activation=leaky_relu[0.01])
        (conv3): Conv2d(8, 32, kernel_size=(1, 1), stride=(1, 1), bias=False)
        (bn3): InPlaceABNSync(8, eps=1e-05, momentum=0.1, affine=True, activation=leaky_relu[0.01])
      )
      (4): BottleneckABN(
        (conv1): Conv2d(32, 8, kernel_size=(1, 1), stride=(1, 1), bias=False)
        (bn1): InPlaceABNSync(32, eps=1e-05, momentum=0.1, affine=True, activation=leaky_relu[0.01])
        (conv2): Conv2d(8, 8, kernel_size=(3, 3), stride=(1, 1), padding=(1, 1), bias=False)
        (bn2): InPlaceABNSync(8, eps=1e-05, momentum=0.1, affine=True, activation=leaky_relu[0.01])
        (conv3): Conv2d(8, 32, kernel_size=(1, 1), stride=(1, 1), bias=False)
        (bn3): InPlaceABNSync(8, eps=1e-05, momentum=0.1, affine=True, activation=leaky_relu[0.01])
      )
    )
    (rt1): Sequential(
      (0): Conv2dABN(
        (conv): Conv2d(48, 16, kernel_size=(3, 3), stride=(1, 1), padding=(1, 1), bias=False)
        (abn): InPlaceABNSync(16, eps=1e-05, momentum=0.1, affine=True, activation=leaky_relu[0.01])
      )
      (1): BottleneckABN(
        (conv1): Conv2d(16, 4, kernel_size=(1, 1), stride=(1, 1), bias=False)
        (bn1): InPlaceABNSync(16, eps=1e-05, momentum=0.1, affine=True, activation=leaky_relu[0.01])
        (conv2): Conv2d(4, 4, kernel_size=(3, 3), stride=(1, 1), padding=(1, 1), bias=False)
        (bn2): InPlaceABNSync(4, eps=1e-05, momentum=0.1, affine=True, activation=leaky_relu[0.01])
        (conv3): Conv2d(4, 16, kernel_size=(1, 1), stride=(1, 1), bias=False)
        (bn3): InPlaceABNSync(4, eps=1e-05, momentum=0.1, affine=True, activation=leaky_relu[0.01])
      )
      (2): BottleneckABN(
        (conv1): Conv2d(16, 4, kernel_size=(1, 1), stride=(1, 1), bias=False)
        (bn1): InPlaceABNSync(16, eps=1e-05, momentum=0.1, affine=True, activation=leaky_relu[0.01])
        (conv2): Conv2d(4, 4, kernel_size=(3, 3), stride=(1, 1), padding=(1, 1), bias=False)
        (bn2): InPlaceABNSync(4, eps=1e-05, momentum=0.1, affine=True, activation=leaky_relu[0.01])
        (conv3): Conv2d(4, 16, kernel_size=(1, 1), stride=(1, 1), bias=False)
        (bn3): InPlaceABNSync(4, eps=1e-05, momentum=0.1, affine=True, activation=leaky_relu[0.01])
      )
      (3): BottleneckABN(
        (conv1): Conv2d(16, 4, kernel_size=(1, 1), stride=(1, 1), bias=False)
        (bn1): InPlaceABNSync(16, eps=1e-05, momentum=0.1, affine=True, activation=leaky_relu[0.01])
        (conv2): Conv2d(4, 4, kernel_size=(3, 3), stride=(1, 1), padding=(1, 1), bias=False)
        (bn2): InPlaceABNSync(4, eps=1e-05, momentum=0.1, affine=True, activation=leaky_relu[0.01])
        (conv3): Conv2d(4, 16, kernel_size=(1, 1), stride=(1, 1), bias=False)
        (bn3): InPlaceABNSync(4, eps=1e-05, momentum=0.1, affine=True, activation=leaky_relu[0.01])
      )
      (4): BottleneckABN(
        (conv1): Conv2d(16, 4, kernel_size=(1, 1), stride=(1, 1), bias=False)
        (bn1): InPlaceABNSync(16, eps=1e-05, momentum=0.1, affine=True, activation=leaky_relu[0.01])
        (conv2): Conv2d(4, 4, kernel_size=(3, 3), stride=(1, 1), padding=(1, 1), bias=False)
        (bn2): InPlaceABNSync(4, eps=1e-05, momentum=0.1, affine=True, activation=leaky_relu[0.01])
        (conv3): Conv2d(4, 16, kernel_size=(1, 1), stride=(1, 1), bias=False)
        (bn3): InPlaceABNSync(4, eps=1e-05, momentum=0.1, affine=True, activation=leaky_relu[0.01])
      )
    )
    (up1): Upsample(scale_factor=2.0, mode='bilinear')
    (l2): Sequential(
      (0): Conv2dABN(
        (conv): Conv2d(32, 64, kernel_size=(3, 3), stride=(2, 2), padding=(1, 1), bias=False)
        (abn): InPlaceABNSync(64, eps=1e-05, momentum=0.1, affine=True, activation=leaky_relu[0.01])
      )
      (1): BottleneckABN(
        (conv1): Conv2d(64, 16, kernel_size=(1, 1), stride=(1, 1), bias=False)
        (bn1): InPlaceABNSync(64, eps=1e-05, momentum=0.1, affine=True, activation=leaky_relu[0.01])
        (conv2): Conv2d(16, 16, kernel_size=(3, 3), stride=(1, 1), padding=(1, 1), bias=False)
        (bn2): InPlaceABNSync(16, eps=1e-05, momentum=0.1, affine=True, activation=leaky_relu[0.01])
        (conv3): Conv2d(16, 64, kernel_size=(1, 1), stride=(1, 1), bias=False)
        (bn3): InPlaceABNSync(16, eps=1e-05, momentum=0.1, affine=True, activation=leaky_relu[0.01])
      )
      (2): BottleneckABN(
        (conv1): Conv2d(64, 16, kernel_size=(1, 1), stride=(1, 1), bias=False)
        (bn1): InPlaceABNSync(64, eps=1e-05, momentum=0.1, affine=True, activation=leaky_relu[0.01])
        (conv2): Conv2d(16, 16, kernel_size=(3, 3), stride=(1, 1), padding=(1, 1), bias=False)
        (bn2): InPlaceABNSync(16, eps=1e-05, momentum=0.1, affine=True, activation=leaky_relu[0.01])
        (conv3): Conv2d(16, 64, kernel_size=(1, 1), stride=(1, 1), bias=False)
        (bn3): InPlaceABNSync(16, eps=1e-05, momentum=0.1, affine=True, activation=leaky_relu[0.01])
      )
      (3): BottleneckABN(
        (conv1): Conv2d(64, 16, kernel_size=(1, 1), stride=(1, 1), bias=False)
        (bn1): InPlaceABNSync(64, eps=1e-05, momentum=0.1, affine=True, activation=leaky_relu[0.01])
        (conv2): Conv2d(16, 16, kernel_size=(3, 3), stride=(1, 1), padding=(1, 1), bias=False)
        (bn2): InPlaceABNSync(16, eps=1e-05, momentum=0.1, affine=True, activation=leaky_relu[0.01])
        (conv3): Conv2d(16, 64, kernel_size=(1, 1), stride=(1, 1), bias=False)
        (bn3): InPlaceABNSync(16, eps=1e-05, momentum=0.1, affine=True, activation=leaky_relu[0.01])
      )
      (4): BottleneckABN(
        (conv1): Conv2d(64, 16, kernel_size=(1, 1), stride=(1, 1), bias=False)
        (bn1): InPlaceABNSync(64, eps=1e-05, momentum=0.1, affine=True, activation=leaky_relu[0.01])
        (conv2): Conv2d(16, 16, kernel_size=(3, 3), stride=(1, 1), padding=(1, 1), bias=False)
        (bn2): InPlaceABNSync(16, eps=1e-05, momentum=0.1, affine=True, activation=leaky_relu[0.01])
        (conv3): Conv2d(16, 64, kernel_size=(1, 1), stride=(1, 1), bias=False)
        (bn3): InPlaceABNSync(16, eps=1e-05, momentum=0.1, affine=True, activation=leaky_relu[0.01])
      )
      (5): BottleneckABN(
        (conv1): Conv2d(64, 16, kernel_size=(1, 1), stride=(1, 1), bias=False)
        (bn1): InPlaceABNSync(64, eps=1e-05, momentum=0.1, affine=True, activation=leaky_relu[0.01])
        (conv2): Conv2d(16, 16, kernel_size=(3, 3), stride=(1, 1), padding=(1, 1), bias=False)
        (bn2): InPlaceABNSync(16, eps=1e-05, momentum=0.1, affine=True, activation=leaky_relu[0.01])
        (conv3): Conv2d(16, 64, kernel_size=(1, 1), stride=(1, 1), bias=False)
        (bn3): InPlaceABNSync(16, eps=1e-05, momentum=0.1, affine=True, activation=leaky_relu[0.01])
      )
    )
    (rt2): Sequential(
      (0): Conv2dABN(
        (conv): Conv2d(96, 32, kernel_size=(3, 3), stride=(1, 1), padding=(1, 1), bias=False)
        (abn): InPlaceABNSync(32, eps=1e-05, momentum=0.1, affine=True, activation=leaky_relu[0.01])
      )
      (1): BottleneckABN(
        (conv1): Conv2d(32, 8, kernel_size=(1, 1), stride=(1, 1), bias=False)
        (bn1): InPlaceABNSync(32, eps=1e-05, momentum=0.1, affine=True, activation=leaky_relu[0.01])
        (conv2): Conv2d(8, 8, kernel_size=(3, 3), stride=(1, 1), padding=(1, 1), bias=False)
        (bn2): InPlaceABNSync(8, eps=1e-05, momentum=0.1, affine=True, activation=leaky_relu[0.01])
        (conv3): Conv2d(8, 32, kernel_size=(1, 1), stride=(1, 1), bias=False)
        (bn3): InPlaceABNSync(8, eps=1e-05, momentum=0.1, affine=True, activation=leaky_relu[0.01])
      )
      (2): BottleneckABN(
        (conv1): Conv2d(32, 8, kernel_size=(1, 1), stride=(1, 1), bias=False)
        (bn1): InPlaceABNSync(32, eps=1e-05, momentum=0.1, affine=True, activation=leaky_relu[0.01])
        (conv2): Conv2d(8, 8, kernel_size=(3, 3), stride=(1, 1), padding=(1, 1), bias=False)
        (bn2): InPlaceABNSync(8, eps=1e-05, momentum=0.1, affine=True, activation=leaky_relu[0.01])
        (conv3): Conv2d(8, 32, kernel_size=(1, 1), stride=(1, 1), bias=False)
        (bn3): InPlaceABNSync(8, eps=1e-05, momentum=0.1, affine=True, activation=leaky_relu[0.01])
      )
      (3): BottleneckABN(
        (conv1): Conv2d(32, 8, kernel_size=(1, 1), stride=(1, 1), bias=False)
        (bn1): InPlaceABNSync(32, eps=1e-05, momentum=0.1, affine=True, activation=leaky_relu[0.01])
        (conv2): Conv2d(8, 8, kernel_size=(3, 3), stride=(1, 1), padding=(1, 1), bias=False)
        (bn2): InPlaceABNSync(8, eps=1e-05, momentum=0.1, affine=True, activation=leaky_relu[0.01])
        (conv3): Conv2d(8, 32, kernel_size=(1, 1), stride=(1, 1), bias=False)
        (bn3): InPlaceABNSync(8, eps=1e-05, momentum=0.1, affine=True, activation=leaky_relu[0.01])
      )
      (4): BottleneckABN(
        (conv1): Conv2d(32, 8, kernel_size=(1, 1), stride=(1, 1), bias=False)
        (bn1): InPlaceABNSync(32, eps=1e-05, momentum=0.1, affine=True, activation=leaky_relu[0.01])
        (conv2): Conv2d(8, 8, kernel_size=(3, 3), stride=(1, 1), padding=(1, 1), bias=False)
        (bn2): InPlaceABNSync(8, eps=1e-05, momentum=0.1, affine=True, activation=leaky_relu[0.01])
        (conv3): Conv2d(8, 32, kernel_size=(1, 1), stride=(1, 1), bias=False)
        (bn3): InPlaceABNSync(8, eps=1e-05, momentum=0.1, affine=True, activation=leaky_relu[0.01])
      )
      (5): BottleneckABN(
        (conv1): Conv2d(32, 8, kernel_size=(1, 1), stride=(1, 1), bias=False)
        (bn1): InPlaceABNSync(32, eps=1e-05, momentum=0.1, affine=True, activation=leaky_relu[0.01])
        (conv2): Conv2d(8, 8, kernel_size=(3, 3), stride=(1, 1), padding=(1, 1), bias=False)
        (bn2): InPlaceABNSync(8, eps=1e-05, momentum=0.1, affine=True, activation=leaky_relu[0.01])
        (conv3): Conv2d(8, 32, kernel_size=(1, 1), stride=(1, 1), bias=False)
        (bn3): InPlaceABNSync(8, eps=1e-05, momentum=0.1, affine=True, activation=leaky_relu[0.01])
      )
    )
    (up2): Upsample(scale_factor=2.0, mode='bilinear')
    (l3): Sequential(
      (0): Conv2dABN(
        (conv): Conv2d(64, 128, kernel_size=(3, 3), stride=(2, 2), padding=(1, 1), bias=False)
        (abn): InPlaceABNSync(128, eps=1e-05, momentum=0.1, affine=True, activation=leaky_relu[0.01])
      )
      (1): BottleneckABN(
        (conv1): Conv2d(128, 32, kernel_size=(1, 1), stride=(1, 1), bias=False)
        (bn1): InPlaceABNSync(128, eps=1e-05, momentum=0.1, affine=True, activation=leaky_relu[0.01])
        (conv2): Conv2d(32, 32, kernel_size=(3, 3), stride=(1, 1), padding=(1, 1), bias=False)
        (bn2): InPlaceABNSync(32, eps=1e-05, momentum=0.1, affine=True, activation=leaky_relu[0.01])
        (conv3): Conv2d(32, 128, kernel_size=(1, 1), stride=(1, 1), bias=False)
        (bn3): InPlaceABNSync(32, eps=1e-05, momentum=0.1, affine=True, activation=leaky_relu[0.01])
      )
      (2): BottleneckABN(
        (conv1): Conv2d(128, 32, kernel_size=(1, 1), stride=(1, 1), bias=False)
        (bn1): InPlaceABNSync(128, eps=1e-05, momentum=0.1, affine=True, activation=leaky_relu[0.01])
        (conv2): Conv2d(32, 32, kernel_size=(3, 3), stride=(1, 1), padding=(1, 1), bias=False)
        (bn2): InPlaceABNSync(32, eps=1e-05, momentum=0.1, affine=True, activation=leaky_relu[0.01])
        (conv3): Conv2d(32, 128, kernel_size=(1, 1), stride=(1, 1), bias=False)
        (bn3): InPlaceABNSync(32, eps=1e-05, momentum=0.1, affine=True, activation=leaky_relu[0.01])
      )
      (3): BottleneckABN(
        (conv1): Conv2d(128, 32, kernel_size=(1, 1), stride=(1, 1), bias=False)
        (bn1): InPlaceABNSync(128, eps=1e-05, momentum=0.1, affine=True, activation=leaky_relu[0.01])
        (conv2): Conv2d(32, 32, kernel_size=(3, 3), stride=(1, 1), padding=(1, 1), bias=False)
        (bn2): InPlaceABNSync(32, eps=1e-05, momentum=0.1, affine=True, activation=leaky_relu[0.01])
        (conv3): Conv2d(32, 128, kernel_size=(1, 1), stride=(1, 1), bias=False)
        (bn3): InPlaceABNSync(32, eps=1e-05, momentum=0.1, affine=True, activation=leaky_relu[0.01])
      )
      (4): BottleneckABN(
        (conv1): Conv2d(128, 32, kernel_size=(1, 1), stride=(1, 1), bias=False)
        (bn1): InPlaceABNSync(128, eps=1e-05, momentum=0.1, affine=True, activation=leaky_relu[0.01])
        (conv2): Conv2d(32, 32, kernel_size=(3, 3), stride=(1, 1), padding=(1, 1), bias=False)
        (bn2): InPlaceABNSync(32, eps=1e-05, momentum=0.1, affine=True, activation=leaky_relu[0.01])
        (conv3): Conv2d(32, 128, kernel_size=(1, 1), stride=(1, 1), bias=False)
        (bn3): InPlaceABNSync(32, eps=1e-05, momentum=0.1, affine=True, activation=leaky_relu[0.01])
      )
      (5): BottleneckABN(
        (conv1): Conv2d(128, 32, kernel_size=(1, 1), stride=(1, 1), bias=False)
        (bn1): InPlaceABNSync(128, eps=1e-05, momentum=0.1, affine=True, activation=leaky_relu[0.01])
        (conv2): Conv2d(32, 32, kernel_size=(3, 3), stride=(1, 1), padding=(1, 1), bias=False)
        (bn2): InPlaceABNSync(32, eps=1e-05, momentum=0.1, affine=True, activation=leaky_relu[0.01])
        (conv3): Conv2d(32, 128, kernel_size=(1, 1), stride=(1, 1), bias=False)
        (bn3): InPlaceABNSync(32, eps=1e-05, momentum=0.1, affine=True, activation=leaky_relu[0.01])
      )
      (6): BottleneckABN(
        (conv1): Conv2d(128, 32, kernel_size=(1, 1), stride=(1, 1), bias=False)
        (bn1): InPlaceABNSync(128, eps=1e-05, momentum=0.1, affine=True, activation=leaky_relu[0.01])
        (conv2): Conv2d(32, 32, kernel_size=(3, 3), stride=(1, 1), padding=(1, 1), bias=False)
        (bn2): InPlaceABNSync(32, eps=1e-05, momentum=0.1, affine=True, activation=leaky_relu[0.01])
        (conv3): Conv2d(32, 128, kernel_size=(1, 1), stride=(1, 1), bias=False)
        (bn3): InPlaceABNSync(32, eps=1e-05, momentum=0.1, affine=True, activation=leaky_relu[0.01])
      )
    )
    (rt3): Sequential(
      (0): Conv2dABN(
        (conv): Conv2d(192, 64, kernel_size=(3, 3), stride=(1, 1), padding=(1, 1), bias=False)
        (abn): InPlaceABNSync(64, eps=1e-05, momentum=0.1, affine=True, activation=leaky_relu[0.01])
      )
      (1): BottleneckABN(
        (conv1): Conv2d(64, 16, kernel_size=(1, 1), stride=(1, 1), bias=False)
        (bn1): InPlaceABNSync(64, eps=1e-05, momentum=0.1, affine=True, activation=leaky_relu[0.01])
        (conv2): Conv2d(16, 16, kernel_size=(3, 3), stride=(1, 1), padding=(1, 1), bias=False)
        (bn2): InPlaceABNSync(16, eps=1e-05, momentum=0.1, affine=True, activation=leaky_relu[0.01])
        (conv3): Conv2d(16, 64, kernel_size=(1, 1), stride=(1, 1), bias=False)
        (bn3): InPlaceABNSync(16, eps=1e-05, momentum=0.1, affine=True, activation=leaky_relu[0.01])
      )
      (2): BottleneckABN(
        (conv1): Conv2d(64, 16, kernel_size=(1, 1), stride=(1, 1), bias=False)
        (bn1): InPlaceABNSync(64, eps=1e-05, momentum=0.1, affine=True, activation=leaky_relu[0.01])
        (conv2): Conv2d(16, 16, kernel_size=(3, 3), stride=(1, 1), padding=(1, 1), bias=False)
        (bn2): InPlaceABNSync(16, eps=1e-05, momentum=0.1, affine=True, activation=leaky_relu[0.01])
        (conv3): Conv2d(16, 64, kernel_size=(1, 1), stride=(1, 1), bias=False)
        (bn3): InPlaceABNSync(16, eps=1e-05, momentum=0.1, affine=True, activation=leaky_relu[0.01])
      )
      (3): BottleneckABN(
        (conv1): Conv2d(64, 16, kernel_size=(1, 1), stride=(1, 1), bias=False)
        (bn1): InPlaceABNSync(64, eps=1e-05, momentum=0.1, affine=True, activation=leaky_relu[0.01])
        (conv2): Conv2d(16, 16, kernel_size=(3, 3), stride=(1, 1), padding=(1, 1), bias=False)
        (bn2): InPlaceABNSync(16, eps=1e-05, momentum=0.1, affine=True, activation=leaky_relu[0.01])
        (conv3): Conv2d(16, 64, kernel_size=(1, 1), stride=(1, 1), bias=False)
        (bn3): InPlaceABNSync(16, eps=1e-05, momentum=0.1, affine=True, activation=leaky_relu[0.01])
      )
      (4): BottleneckABN(
        (conv1): Conv2d(64, 16, kernel_size=(1, 1), stride=(1, 1), bias=False)
        (bn1): InPlaceABNSync(64, eps=1e-05, momentum=0.1, affine=True, activation=leaky_relu[0.01])
        (conv2): Conv2d(16, 16, kernel_size=(3, 3), stride=(1, 1), padding=(1, 1), bias=False)
        (bn2): InPlaceABNSync(16, eps=1e-05, momentum=0.1, affine=True, activation=leaky_relu[0.01])
        (conv3): Conv2d(16, 64, kernel_size=(1, 1), stride=(1, 1), bias=False)
        (bn3): InPlaceABNSync(16, eps=1e-05, momentum=0.1, affine=True, activation=leaky_relu[0.01])
      )
      (5): BottleneckABN(
        (conv1): Conv2d(64, 16, kernel_size=(1, 1), stride=(1, 1), bias=False)
        (bn1): InPlaceABNSync(64, eps=1e-05, momentum=0.1, affine=True, activation=leaky_relu[0.01])
        (conv2): Conv2d(16, 16, kernel_size=(3, 3), stride=(1, 1), padding=(1, 1), bias=False)
        (bn2): InPlaceABNSync(16, eps=1e-05, momentum=0.1, affine=True, activation=leaky_relu[0.01])
        (conv3): Conv2d(16, 64, kernel_size=(1, 1), stride=(1, 1), bias=False)
        (bn3): InPlaceABNSync(16, eps=1e-05, momentum=0.1, affine=True, activation=leaky_relu[0.01])
      )
      (6): BottleneckABN(
        (conv1): Conv2d(64, 16, kernel_size=(1, 1), stride=(1, 1), bias=False)
        (bn1): InPlaceABNSync(64, eps=1e-05, momentum=0.1, affine=True, activation=leaky_relu[0.01])
        (conv2): Conv2d(16, 16, kernel_size=(3, 3), stride=(1, 1), padding=(1, 1), bias=False)
        (bn2): InPlaceABNSync(16, eps=1e-05, momentum=0.1, affine=True, activation=leaky_relu[0.01])
        (conv3): Conv2d(16, 64, kernel_size=(1, 1), stride=(1, 1), bias=False)
        (bn3): InPlaceABNSync(16, eps=1e-05, momentum=0.1, affine=True, activation=leaky_relu[0.01])
      )
    )
    (up3): Upsample(scale_factor=2.0, mode='bilinear')
    (l4): Sequential(
      (0): Conv2dABN(
        (conv): Conv2d(128, 128, kernel_size=(3, 3), stride=(2, 2), padding=(1, 1), bias=False)
        (abn): InPlaceABNSync(128, eps=1e-05, momentum=0.1, affine=True, activation=leaky_relu[0.01])
      )
      (1): BottleneckABN(
        (conv1): Conv2d(128, 32, kernel_size=(1, 1), stride=(1, 1), bias=False)
        (bn1): InPlaceABNSync(128, eps=1e-05, momentum=0.1, affine=True, activation=leaky_relu[0.01])
        (conv2): Conv2d(32, 32, kernel_size=(3, 3), stride=(1, 1), padding=(1, 1), bias=False)
        (bn2): InPlaceABNSync(32, eps=1e-05, momentum=0.1, affine=True, activation=leaky_relu[0.01])
        (conv3): Conv2d(32, 128, kernel_size=(1, 1), stride=(1, 1), bias=False)
        (bn3): InPlaceABNSync(32, eps=1e-05, momentum=0.1, affine=True, activation=leaky_relu[0.01])
      )
      (2): BottleneckABN(
        (conv1): Conv2d(128, 32, kernel_size=(1, 1), stride=(1, 1), bias=False)
        (bn1): InPlaceABNSync(128, eps=1e-05, momentum=0.1, affine=True, activation=leaky_relu[0.01])
        (conv2): Conv2d(32, 32, kernel_size=(3, 3), stride=(1, 1), padding=(1, 1), bias=False)
        (bn2): InPlaceABNSync(32, eps=1e-05, momentum=0.1, affine=True, activation=leaky_relu[0.01])
        (conv3): Conv2d(32, 128, kernel_size=(1, 1), stride=(1, 1), bias=False)
        (bn3): InPlaceABNSync(32, eps=1e-05, momentum=0.1, affine=True, activation=leaky_relu[0.01])
      )
      (3): BottleneckABN(
        (conv1): Conv2d(128, 32, kernel_size=(1, 1), stride=(1, 1), bias=False)
        (bn1): InPlaceABNSync(128, eps=1e-05, momentum=0.1, affine=True, activation=leaky_relu[0.01])
        (conv2): Conv2d(32, 32, kernel_size=(3, 3), stride=(1, 1), padding=(1, 1), bias=False)
        (bn2): InPlaceABNSync(32, eps=1e-05, momentum=0.1, affine=True, activation=leaky_relu[0.01])
        (conv3): Conv2d(32, 128, kernel_size=(1, 1), stride=(1, 1), bias=False)
        (bn3): InPlaceABNSync(32, eps=1e-05, momentum=0.1, affine=True, activation=leaky_relu[0.01])
      )
      (4): BottleneckABN(
        (conv1): Conv2d(128, 32, kernel_size=(1, 1), stride=(1, 1), bias=False)
        (bn1): InPlaceABNSync(128, eps=1e-05, momentum=0.1, affine=True, activation=leaky_relu[0.01])
        (conv2): Conv2d(32, 32, kernel_size=(3, 3), stride=(1, 1), padding=(1, 1), bias=False)
        (bn2): InPlaceABNSync(32, eps=1e-05, momentum=0.1, affine=True, activation=leaky_relu[0.01])
        (conv3): Conv2d(32, 128, kernel_size=(1, 1), stride=(1, 1), bias=False)
        (bn3): InPlaceABNSync(32, eps=1e-05, momentum=0.1, affine=True, activation=leaky_relu[0.01])
      )
      (5): BottleneckABN(
        (conv1): Conv2d(128, 32, kernel_size=(1, 1), stride=(1, 1), bias=False)
        (bn1): InPlaceABNSync(128, eps=1e-05, momentum=0.1, affine=True, activation=leaky_relu[0.01])
        (conv2): Conv2d(32, 32, kernel_size=(3, 3), stride=(1, 1), padding=(1, 1), bias=False)
        (bn2): InPlaceABNSync(32, eps=1e-05, momentum=0.1, affine=True, activation=leaky_relu[0.01])
        (conv3): Conv2d(32, 128, kernel_size=(1, 1), stride=(1, 1), bias=False)
        (bn3): InPlaceABNSync(32, eps=1e-05, momentum=0.1, affine=True, activation=leaky_relu[0.01])
      )
      (6): BottleneckABN(
        (conv1): Conv2d(128, 32, kernel_size=(1, 1), stride=(1, 1), bias=False)
        (bn1): InPlaceABNSync(128, eps=1e-05, momentum=0.1, affine=True, activation=leaky_relu[0.01])
        (conv2): Conv2d(32, 32, kernel_size=(3, 3), stride=(1, 1), padding=(1, 1), bias=False)
        (bn2): InPlaceABNSync(32, eps=1e-05, momentum=0.1, affine=True, activation=leaky_relu[0.01])
        (conv3): Conv2d(32, 128, kernel_size=(1, 1), stride=(1, 1), bias=False)
        (bn3): InPlaceABNSync(32, eps=1e-05, momentum=0.1, affine=True, activation=leaky_relu[0.01])
      )
    )
    (rt4): Sequential(
      (0): Conv2dABN(
        (conv): Conv2d(256, 128, kernel_size=(3, 3), stride=(1, 1), padding=(1, 1), bias=False)
        (abn): InPlaceABNSync(128, eps=1e-05, momentum=0.1, affine=True, activation=leaky_relu[0.01])
      )
      (1): BottleneckABN(
        (conv1): Conv2d(128, 32, kernel_size=(1, 1), stride=(1, 1), bias=False)
        (bn1): InPlaceABNSync(128, eps=1e-05, momentum=0.1, affine=True, activation=leaky_relu[0.01])
        (conv2): Conv2d(32, 32, kernel_size=(3, 3), stride=(1, 1), padding=(1, 1), bias=False)
        (bn2): InPlaceABNSync(32, eps=1e-05, momentum=0.1, affine=True, activation=leaky_relu[0.01])
        (conv3): Conv2d(32, 128, kernel_size=(1, 1), stride=(1, 1), bias=False)
        (bn3): InPlaceABNSync(32, eps=1e-05, momentum=0.1, affine=True, activation=leaky_relu[0.01])
      )
      (2): BottleneckABN(
        (conv1): Conv2d(128, 32, kernel_size=(1, 1), stride=(1, 1), bias=False)
        (bn1): InPlaceABNSync(128, eps=1e-05, momentum=0.1, affine=True, activation=leaky_relu[0.01])
        (conv2): Conv2d(32, 32, kernel_size=(3, 3), stride=(1, 1), padding=(1, 1), bias=False)
        (bn2): InPlaceABNSync(32, eps=1e-05, momentum=0.1, affine=True, activation=leaky_relu[0.01])
        (conv3): Conv2d(32, 128, kernel_size=(1, 1), stride=(1, 1), bias=False)
        (bn3): InPlaceABNSync(32, eps=1e-05, momentum=0.1, affine=True, activation=leaky_relu[0.01])
      )
      (3): BottleneckABN(
        (conv1): Conv2d(128, 32, kernel_size=(1, 1), stride=(1, 1), bias=False)
        (bn1): InPlaceABNSync(128, eps=1e-05, momentum=0.1, affine=True, activation=leaky_relu[0.01])
        (conv2): Conv2d(32, 32, kernel_size=(3, 3), stride=(1, 1), padding=(1, 1), bias=False)
        (bn2): InPlaceABNSync(32, eps=1e-05, momentum=0.1, affine=True, activation=leaky_relu[0.01])
        (conv3): Conv2d(32, 128, kernel_size=(1, 1), stride=(1, 1), bias=False)
        (bn3): InPlaceABNSync(32, eps=1e-05, momentum=0.1, affine=True, activation=leaky_relu[0.01])
      )
      (4): BottleneckABN(
        (conv1): Conv2d(128, 32, kernel_size=(1, 1), stride=(1, 1), bias=False)
        (bn1): InPlaceABNSync(128, eps=1e-05, momentum=0.1, affine=True, activation=leaky_relu[0.01])
        (conv2): Conv2d(32, 32, kernel_size=(3, 3), stride=(1, 1), padding=(1, 1), bias=False)
        (bn2): InPlaceABNSync(32, eps=1e-05, momentum=0.1, affine=True, activation=leaky_relu[0.01])
        (conv3): Conv2d(32, 128, kernel_size=(1, 1), stride=(1, 1), bias=False)
        (bn3): InPlaceABNSync(32, eps=1e-05, momentum=0.1, affine=True, activation=leaky_relu[0.01])
      )
      (5): BottleneckABN(
        (conv1): Conv2d(128, 32, kernel_size=(1, 1), stride=(1, 1), bias=False)
        (bn1): InPlaceABNSync(128, eps=1e-05, momentum=0.1, affine=True, activation=leaky_relu[0.01])
        (conv2): Conv2d(32, 32, kernel_size=(3, 3), stride=(1, 1), padding=(1, 1), bias=False)
        (bn2): InPlaceABNSync(32, eps=1e-05, momentum=0.1, affine=True, activation=leaky_relu[0.01])
        (conv3): Conv2d(32, 128, kernel_size=(1, 1), stride=(1, 1), bias=False)
        (bn3): InPlaceABNSync(32, eps=1e-05, momentum=0.1, affine=True, activation=leaky_relu[0.01])
      )
      (6): BottleneckABN(
        (conv1): Conv2d(128, 32, kernel_size=(1, 1), stride=(1, 1), bias=False)
        (bn1): InPlaceABNSync(128, eps=1e-05, momentum=0.1, affine=True, activation=leaky_relu[0.01])
        (conv2): Conv2d(32, 32, kernel_size=(3, 3), stride=(1, 1), padding=(1, 1), bias=False)
        (bn2): InPlaceABNSync(32, eps=1e-05, momentum=0.1, affine=True, activation=leaky_relu[0.01])
        (conv3): Conv2d(32, 128, kernel_size=(1, 1), stride=(1, 1), bias=False)
        (bn3): InPlaceABNSync(32, eps=1e-05, momentum=0.1, affine=True, activation=leaky_relu[0.01])
      )
    )
    (up4): Upsample(scale_factor=2.0, mode='bilinear')
  )
  (head): VesSegHead(
    (loss_function): LossList(
      (0): Diceloss()
    )
    (out_layer): Conv2d(16, 1, kernel_size=(1, 1), stride=(1, 1))
  )
)
[12/20 22:55:39] d2.checkpoint.detection_checkpoint INFO: [DetectionCheckpointer] Loading from  ...
[12/20 22:55:39] fvcore.common.checkpoint INFO: No checkpoint found. Initializing model from scratch
[12/20 22:55:39] d2.engine.train_loop INFO: Starting training from iteration 0
[12/20 22:55:58] d2.utils.events INFO:  eta: 1:40:53  iter: 4  total_loss: 0.696  Diceloss: 0.696    time: 0.0946  last_time: 0.0960  data_time: 3.2316  last_data_time: 0.0001   lr: 2.008e-05  max_mem: 415M
…
